quantized_model.tflite (tflite, 632536 bytes, 53 tensors)

mobilenet_v2_alpha_0.35/conv2d/Conv2D i1 [16, 3, 3, 3]
0	0xfa	-6
1	0xe8	-24
2	0x02	2
3	0xc5	-59
4	0x82	-126
5	0xe4	-28
6	0x0c	12
7	0x32	50
8	0x07	7
9	0xf4	-12
10	0xea	-22
11	0xfe	-2
12	0xb2	-78
13	0x81	-127
14	0xe5	-27
15	0x11	17
16	0x1f	31
17	0x01	1
18	0xf9	-7
19	0x02	2
20	0xfc	-4
21	0xeb	-21
22	0xf7	-9
23	0xff	-1
24	0x02	2
25	0xed	-19
26	0xfe	-2
27	0xc7	-57
28	0x84	-124
29	0xed	-19
30	0x1f	31
31	0x42	66
32	0x07	7
33	0xfc	-4
34	0xfe	-2
35	0xff	-1
36	0xb3	-77
37	0x81	-127
38	0xeb	-21
39	0x23	35
40	0x3e	62
41	0x06	6
42	0xfe	-2
43	0xf9	-7
44	0xff	-1
45	0xeb	-21
46	0xf5	-11
47	0xfb	-5
48	0x07	7
49	0xfd	-3
50	0x01	1
51	0x00	0
52	0xfd	-3
53	0x00	0
54	0xb0	-80
55	0x3f	63
56	0x1a	26
57	0x81	-127
58	0x4d	77
59	0x38	56
60	0xdd	-35
61	0x10	16
62	0x0f	15
63	0xc4	-60
64	0x23	35
65	0x1f	31
66	0x8e	-114
67	0x32	50
68	0x43	67
69	0xe7	-25
70	0x0f	15
71	0x0a	10
72	0x18	24
73	0xf5	-11
74	0xf2	-14
75	0xdb	-37
76	0x0d	13
77	0x18	24
78	0xbf	-65
79	0x27	39
80	0x1e	30
81	0x00	0
82	0x00	0
83	0x00	0
84	0x00	0
85	0x00	0
86	0x00	0
87	0x00	0
88	0x00	0
89	0x00	0
90	0x00	0
91	0x00	0
92	0x00	0
93	0x00	0
94	0x00	0
95	0x00	0
96	0x00	0
97	0x00	0
98	0x00	0
99	0x00	0
100	0x00	0
101	0x00	0
102	0x00	0
103	0x00	0
104	0x00	0
105	0x00	0
106	0x00	0
107	0x00	0
108	0xee	-18
109	0xe1	-31
110	0xf3	-13
111	0xdd	-35
112	0xc6	-58
113	0xf2	-14
114	0xe9	-23
115	0xd3	-45
116	0xf7	-9
117	0xdb	-37
118	0xc0	-64
119	0xf0	-16
120	0xb6	-74
121	0x81	-127
122	0xe3	-29
123	0xd5	-43
124	0xc1	-63
125	0xf3	-13
126	0xf6	-10
127	0xf9	-7
128	0xf9	-7
129	0xe9	-23
130	0xe9	-23
131	0xf4	-12
132	0xf3	-13
133	0xed	-19
134	0xfb	-5
135	0x63	99
136	0xde	-34
137	0xbf	-65
138	0x4f	79
139	0xe3	-29
140	0xc9	-55
141	0x30	48
142	0xf4	-12
143	0xd8	-40
144	0x7f	127
145	0xdd	-35
146	0x9f	-97
147	0x76	118
148	0xde	-34
149	0xa8	-88
150	0x3c	60
151	0xf0	-16
152	0xd1	-47
153	0x27	39
154	0x07	7
155	0xcf	-49
156	0x1b	27
157	0x00	0
158	0xe5	-27
159	0xf9	-7
160	0x01	1
161	0x09	9
162	0x00	0
163	0x00	0
164	0x00	0
165	0x00	0
166	0x00	0
167	0x00	0
168	0x00	0
169	0x00	0
170	0x00	0
171	0x00	0
172	0x00	0
173	0x00	0
174	0x00	0
175	0x00	0
176	0x00	0
177	0x00	0
178	0x00	0
179	0x00	0
180	0x00	0
181	0x00	0
182	0x00	0
183	0x00	0
184	0x00	0
185	0x00	0
186	0x00	0
187	0x00	0
188	0x00	0
189	0x00	0
190	0x00	0
191	0x00	0
192	0x00	0
193	0x00	0
194	0x00	0
195	0x00	0
196	0x00	0
197	0x00	0
198	0x00	0
199	0x00	0
200	0x00	0
201	0x00	0
202	0x00	0
203	0x00	0
204	0x00	0
205	0x00	0
206	0x00	0
207	0x00	0
208	0x00	0
209	0x00	0
210	0x00	0
211	0x00	0
212	0x00	0
213	0x00	0
214	0x00	0
215	0x00	0
216	0x00	0
217	0x00	0
218	0x00	0
219	0x00	0
220	0x00	0
221	0x00	0
222	0x00	0
223	0x00	0
224	0x00	0
225	0x00	0
226	0x00	0
227	0x00	0
228	0x00	0
229	0x00	0
230	0x00	0
231	0x00	0
232	0x00	0
233	0x00	0
234	0x00	0
235	0x00	0
236	0x00	0
237	0x00	0
238	0x00	0
239	0x00	0
240	0x00	0
241	0x00	0
242	0x00	0
243	0x00	0
244	0x00	0
245	0x00	0
246	0x00	0
247	0x00	0
248	0x00	0
249	0x00	0
250	0x00	0
251	0x00	0
252	0x00	0
253	0x00	0
254	0x00	0
255	0x00	0

mobilenet_v2_alpha_0.35/batch_normalization_1/FusedBatchNormV3;mobilenet_v2_alpha_0.35/depthwise_conv2d/depthwise;mobilenet_v2_alpha_0.35/conv2d_11/Conv2D i1 [1, 3, 3, 16]
0	0xff	-1
1	0x01	1
2	0x81	-127
3	0xf3	-13
4	0x02	2
5	0x1f	31
6	0xee	-18
7	0xc6	-58
8	0x31	49
9	0x40	64
10	0xc3	-61
11	0xd5	-43
12	0x81	-127
13	0xdb	-37
14	0xf8	-8
15	0x48	72
16	0xfe	-2
17	0x00	0
18	0x9e	-98
19	0x14	20
20	0x81	-127
21	0xf9	-7
22	0xc8	-56
23	0xdf	-33
24	0x5f	95
25	0xd9	-39
26	0x81	-127
27	0x7f	127
28	0x86	-122
29	0x04	4
30	0xf9	-7
31	0x61	97
32	0xff	-1
33	0x01	1
34	0x00	0
35	0x09	9
36	0x05	5
37	0x00	0
38	0xf0	-16
39	0xf2	-14
40	0x72	114
41	0x05	5
42	0xac	-84
43	0x5b	91
44	0x16	22
45	0x42	66
46	0x02	2
47	0x28	40
48	0xfb	-5
49	0x02	2
50	0x0f	15
51	0x14	20
52	0x03	3
53	0x7f	127
54	0xd6	-42
55	0xfe	-2
56	0x31	49
57	0x54	84
58	0xcd	-51
59	0xda	-38
60	0x99	-103
61	0xd9	-39
62	0x81	-127
63	0x72	114
64	0x7f	127
65	0xd6	-42
66	0x0d	13
67	0x7f	127
68	0x57	87
69	0x43	67
70	0x81	-127
71	0xe7	-25
72	0x41	65
73	0xde	-34
74	0xdf	-33
75	0x17	23
76	0x10	16
77	0x01	1
78	0xb7	-73
79	0x7f	127
80	0x12	18
81	0x81	-127
82	0x13	19
83	0x17	23
84	0x03	3
85	0xed	-19
86	0xba	-70
87	0xfa	-6
88	0x60	96
89	0xef	-17
90	0xb0	-80
91	0xd0	-48
92	0xca	-54
93	0x32	50
94	0x0f	15
95	0x2a	42
96	0x01	1
97	0x00	0
98	0x57	87
99	0x03	3
100	0xfb	-5
101	0x5c	92
102	0xeb	-21
103	0xfc	-4
104	0x6b	107
105	0x7f	127
106	0x00	0
107	0xef	-17
108	0xea	-22
109	0x7f	127
110	0xa7	-89
111	0x2b	43
112	0x00	0
113	0xff	-1
114	0x2b	43
115	0x60	96
116	0x0c	12
117	0x3c	60
118	0xd3	-45
119	0xbc	-68
120	0x72	114
121	0xff	-1
122	0xf6	-10
123	0xef	-17
124	0x29	41
125	0x0e	14
126	0xb9	-71
127	0x33	51
128	0x01	1
129	0xfe	-2
130	0x27	39
131	0x1c	28
132	0xfa	-6
133	0xfb	-5
134	0xea	-22
135	0x81	-127
136	0x7f	127
137	0xbd	-67
138	0xf9	-7
139	0xe7	-25
140	0x02	2
141	0x2c	44
142	0x0e	14
143	0x02	2

mobilenet_v2_alpha_0.35/conv2d_1/Conv2D i1 [8, 1, 1, 16]
0	0x00	0
1	0xff	-1
2	0x01	1
3	0x00	0
4	0xff	-1
5	0xff	-1
6	0x00	0
7	0x00	0
8	0x00	0
9	0x00	0
10	0x00	0
11	0xff	-1
12	0x00	0
13	0x00	0
14	0x7f	127
15	0x14	20
16	0x06	6
17	0xf4	-12
18	0xf9	-7
19	0x00	0
20	0x0b	11
21	0x81	-127
22	0xff	-1
23	0x00	0
24	0x00	0
25	0x00	0
26	0x00	0
27	0x34	52
28	0x00	0
29	0x00	0
30	0x02	2
31	0xd5	-43
32	0xc7	-57
33	0x81	-127
34	0x00	0
35	0x00	0
36	0x00	0
37	0x00	0
38	0x00	0
39	0x00	0
40	0x00	0
41	0x00	0
42	0x00	0
43	0x07	7
44	0x00	0
45	0x00	0
46	0xfd	-3
47	0x0f	15
48	0x2a	42
49	0xd8	-40
50	0x7f	127
51	0x00	0
52	0x37	55
53	0xff	-1
54	0x00	0
55	0x00	0
56	0x00	0
57	0x00	0
58	0x00	0
59	0xd2	-46
60	0x00	0
61	0x00	0
62	0x0b	11
63	0xe5	-27
64	0x81	-127
65	0x9f	-97
66	0xfe	-2
67	0x00	0
68	0xfe	-2
69	0x01	1
70	0x00	0
71	0x00	0
72	0x00	0
73	0x00	0
74	0x00	0
75	0xfa	-6
76	0x00	0
77	0x00	0
78	0x04	4
79	0xf2	-14
80	0x2d	45
81	0xd0	-48
82	0x81	-127
83	0x00	0
84	0x40	64
85	0x08	8
86	0x00	0
87	0x00	0
88	0x00	0
89	0x00	0
90	0x00	0
91	0xce	-50
92	0x00	0
93	0x00	0
94	0xff	-1
95	0xeb	-21
96	0x06	6
97	0xfa	-6
98	0xff	-1
99	0x00	0
100	0x0e	14
101	0x7f	127
102	0x00	0
103	0x00	0
104	0x00	0
105	0x00	0
106	0x00	0
107	0x2f	47
108	0x00	0
109	0x00	0
110	0x04	4
111	0x08	8
112	0xee	-18
113	0x10	16
114	0xfe	-2
115	0x00	0
116	0x7f	127
117	0xfe	-2
118	0x00	0
119	0x00	0
120	0x00	0
121	0x00	0
122	0x00	0
123	0xf5	-11
124	0x00	0
125	0x00	0
126	0xff	-1
127	0x0d	13

mobilenet_v2_alpha_0.35/conv2d_2/Conv2D i1 [48, 1, 1, 8]
0	0x00	0
1	0x00	0
2	0x00	0
3	0x00	0
4	0x00	0
5	0x00	0
6	0x00	0
7	0x00	0
8	0xbb	-69
9	0x12	18
10	0x4b	75
11	0x0b	11
12	0xaa	-86
13	0x01	1
14	0x40	64
15	0x81	-127
16	0xfc	-4
17	0x03	3
18	0x8d	-115
19	0xfb	-5
20	0x81	-127
21	0xfc	-4
22	0x11	17
23	0xfc	-4
24	0x00	0
25	0xfa	-6
26	0x84	-124
27	0xf5	-11
28	0x81	-127
29	0xfd	-3
30	0xfd	-3
31	0xff	-1
32	0x47	71
33	0x7f	127
34	0x49	73
35	0xf8	-8
36	0xae	-82
37	0xff	-1
38	0xef	-17
39	0x9f	-97
40	0xf8	-8
41	0xbe	-66
42	0x6f	111
43	0x2d	45
44	0x81	-127
45	0x69	105
46	0xea	-22
47	0x06	6
48	0xfc	-4
49	0x2a	42
50	0x1d	29
51	0x3f	63
52	0xd7	-41
53	0x25	37
54	0x2d	45
55	0x7f	127
56	0xfd	-3
57	0x05	5
58	0x85	-123
59	0xf5	-11
60	0x81	-127
61	0xf9	-7
62	0x08	8
63	0x01	1
64	0xc0	-64
65	0x38	56
66	0xdf	-33
67	0xfe	-2
68	0x27	39
69	0xfa	-6
70	0xba	-70
71	0x7f	127
72	0x01	1
73	0xeb	-21
74	0x6f	111
75	0x0b	11
76	0x7f	127
77	0x08	8
78	0xe7	-25
79	0xfe	-2
80	0x01	1
81	0x08	8
82	0x18	24
83	0x42	66
84	0xe7	-25
85	0x4f	79
86	0x08	8
87	0x7f	127
88	0x7f	127
89	0xf8	-8
90	0x00	0
91	0xfa	-6
92	0x00	0
93	0x03	3
94	0x0e	14
95	0x03	3
96	0x15	21
97	0x19	25
98	0x41	65
99	0x2d	45
100	0xb7	-73
101	0x2b	43
102	0x1a	26
103	0x81	-127
104	0x01	1
105	0x1c	28
106	0x7f	127
107	0x04	4
108	0x65	101
109	0x11	17
110	0x1d	29
111	0x05	5
112	0x00	0
113	0x15	21
114	0x16	22
115	0x34	52
116	0xe3	-29
117	0x3a	58
118	0x11	17
119	0x7f	127
120	0x01	1
121	0xcf	-49
122	0xcf	-49
123	0x81	-127
124	0x8f	-113
125	0xc5	-59
126	0xe7	-25
127	0x35	53
128	0x00	0
129	0x00	0
130	0x00	0
131	0x00	0
132	0x00	0
133	0x00	0
134	0x00	0
135	0x00	0
136	0x0a	10
137	0x24	36
138	0xd4	-44
139	0x26	38
140	0x81	-127
141	0x54	84
142	0x1f	31
143	0xdb	-37
144	0x09	9
145	0xf1	-15
146	0xee	-18
147	0x0c	12
148	0x1e	30
149	0xff	-1
150	0xf6	-10
151	0x7f	127
152	0x06	6
153	0xf2	-14
154	0x52	82
155	0x7f	127
156	0xa4	-92
157	0x49	73
158	0xef	-17
159	0xd6	-42
160	0x81	-127
161	0x06	6
162	0x15	21
163	0xca	-54
164	0xee	-18
165	0xff	-1
166	0x01	1
167	0x0f	15
168	0xec	-20
169	0xdc	-36
170	0x8e	-114
171	0xc5	-59
172	0x40	64
173	0xc4	-60
174	0xdb	-37
175	0x7f	127
176	0x12	18
177	0x76	118
178	0xfb	-5
179	0x09	9
180	0x03	3
181	0xf4	-12
182	0x81	-127
183	0x06	6
184	0x00	0
185	0x02	2
186	0xf5	-11
187	0xbf	-65
188	0x12	18
189	0x9b	-101
190	0x04	4
191	0x81	-127
192	0x01	1
193	0xf1	-15
194	0x86	-122
195	0xe3	-29
196	0x7f	127
197	0xe7	-25
198	0xd3	-45
199	0x6e	110
200	0x00	0
201	0x00	0
202	0x00	0
203	0x00	0
204	0x00	0
205	0x00	0
206	0x00	0
207	0x00	0
208	0x48	72
209	0x5b	91
210	0x66	102
211	0x37	55
212	0x81	-127
213	0x7f	127
214	0xb2	-78
215	0xd4	-44
216	0x03	3
217	0xfb	-5
218	0x6a	106
219	0x0d	13
220	0x7f	127
221	0x0e	14
222	0xf2	-14
223	0x00	0
224	0xcb	-53
225	0xd3	-45
226	0x50	80
227	0x7f	127
228	0xaa	-86
229	0x41	65
230	0x4c	76
231	0x1e	30
232	0x81	-127
233	0x09	9
234	0x00	0
235	0x00	0
236	0x00	0
237	0x02	2
238	0xf7	-9
239	0xff	-1
240	0xff	-1
241	0xe5	-27
242	0xeb	-21
243	0xde	-34
244	0x16	22
245	0xcc	-52
246	0xe2	-30
247	0x81	-127
248	0xef	-17
249	0xf1	-15
250	0x82	-126
251	0x07	7
252	0x81	-127
253	0xf1	-15
254	0x14	20
255	0xfb	-5

mobilenet_v2_alpha_0.35/batch_normalization_4/FusedBatchNormV3;mobilenet_v2_alpha_0.35/depthwise_conv2d_1/depthwise;mobilenet_v2_alpha_0.35/depthwise_conv2d_3/depthwise i1 [1, 3, 3, 48]
0	0xfd	-3
1	0xe1	-31
2	0x05	5
3	0x9e	-98
4	0x03	3
5	0x99	-103
6	0xb0	-80
7	0xd9	-39
8	0xe9	-23
9	0x13	19
10	0x1e	30
11	0xcf	-49
12	0xf6	-10
13	0x71	113
14	0xfa	-6
15	0x8f	-113
16	0x26	38
17	0x33	51
18	0xd6	-42
19	0xc3	-61
20	0xf8	-8
21	0x9b	-101
22	0x8e	-114
23	0x2b	43
24	0x0b	11
25	0x19	25
26	0xee	-18
27	0x81	-127
28	0x21	33
29	0x81	-127
30	0x32	50
31	0xcb	-53
32	0x05	5
33	0x7f	127
34	0x3d	61
35	0xd9	-39
36	0xa4	-92
37	0x62	98
38	0xa2	-94
39	0xba	-70
40	0xaa	-86
41	0xa2	-94
42	0xc4	-60
43	0xe2	-30
44	0x55	85
45	0x4b	75
46	0x32	50
47	0xee	-18
48	0x44	68
49	0x0b	11
50	0x67	103
51	0x8b	-117
52	0x21	33
53	0x5b	91
54	0x81	-127
55	0xcb	-53
56	0x06	6
57	0x06	6
58	0x2f	47
59	0x49	73
60	0x59	89
61	0x75	117
62	0xbf	-65
63	0x91	-111
64	0x2b	43
65	0x3e	62
66	0xbf	-65
67	0x81	-127
68	0x2a	42
69	0xe4	-28
70	0x37	55
71	0x6c	108
72	0x64	100
73	0x2b	43
74	0x9d	-99
75	0x44	68
76	0x51	81
77	0x12	18
78	0x63	99
79	0xef	-17
80	0x75	117
81	0x36	54
82	0x0c	12
83	0x81	-127
84	0xa3	-93
85	0x72	114
86	0x81	-127
87	0xcd	-51
88	0x5f	95
89	0xf9	-7
90	0x67	103
91	0xd5	-43
92	0x7f	127
93	0xa7	-89
94	0x3a	58
95	0x05	5
96	0x21	33
97	0x19	25
98	0xf0	-16
99	0xf6	-10
100	0x42	66
101	0x61	97
102	0xb7	-73
103	0x93	-109
104	0x21	33
105	0xfa	-6
106	0x16	22
107	0x6e	110
108	0xb5	-75
109	0x04	4
110	0x00	0
111	0x03	3
112	0x2d	45
113	0x27	39
114	0xcd	-51
115	0x14	20
116	0xba	-70
117	0x7f	127
118	0x7f	127
119	0x20	32
120	0x8b	-117
121	0xec	-20
122	0xb1	-79
123	0xf9	-7
124	0x13	19
125	0x68	104
126	0x2b	43
127	0x01	1
128	0xa0	-96
129	0xfe	-2
130	0x37	55
131	0xde	-34
132	0xd7	-41
133	0xff	-1
134	0xfc	-4
135	0x7f	127
136	0xfd	-3
137	0x6b	107
138	0x79	121
139	0x09	9
140	0x29	41
141	0x0f	15
142	0xfe	-2
143	0x0b	11
144	0x1e	30
145	0xfb	-5
146	0xfe	-2
147	0x9d	-99
148	0xe1	-31
149	0x89	-119
150	0x3a	58
151	0xba	-70
152	0xce	-50
153	0x58	88
154	0x12	18
155	0xfd	-3
156	0xe1	-31
157	0x7f	127
158	0x38	56
159	0x81	-127
160	0x37	55
161	0x31	49
162	0x1c	28
163	0xe4	-28
164	0xbe	-66
165	0xb8	-72
166	0xb5	-75
167	0xca	-54
168	0x06	6
169	0x1e	30
170	0x02	2
171	0x76	118
172	0xbd	-67
173	0xec	-20
174	0x17	23
175	0x7f	127
176	0xd0	-48
177	0x30	48
178	0xc9	-55
179	0x00	0
180	0x95	-107
181	0x70	112
182	0x98	-104
183	0xca	-54
184	0x97	-105
185	0x2e	46
186	0xc4	-60
187	0xaf	-81
188	0xa4	-92
189	0x70	112
190	0x0a	10
191	0xdf	-33
192	0x4f	79
193	0x7f	127
194	0x81	-127
195	0x81	-127
196	0x37	55
197	0x7f	127
198	0x68	104
199	0xcd	-51
200	0x7f	127
201	0x81	-127
202	0xfb	-5
203	0x05	5
204	0x7f	127
205	0x7c	124
206	0x7f	127
207	0x86	-122
208	0x52	82
209	0x3f	63
210	0x68	104
211	0x83	-125
212	0x38	56
213	0xe5	-27
214	0x12	18
215	0x81	-127
216	0x7f	127
217	0x63	99
218	0x02	2
219	0xbb	-69
220	0x81	-127
221	0x22	34
222	0x03	3
223	0x1d	29
224	0x6b	107
225	0xfd	-3
226	0x81	-127
227	0xfb	-5
228	0x81	-127
229	0x7f	127
230	0x81	-127
231	0xd5	-43
232	0x7f	127
233	0x46	70
234	0x71	113
235	0x5b	91
236	0x06	6
237	0x81	-127
238	0x45	69
239	0x7f	127
240	0x37	55
241	0x64	100
242	0x13	19
243	0xf4	-12
244	0x01	1
245	0x78	120
246	0x2d	45
247	0x81	-127
248	0x59	89
249	0x15	21
250	0x0e	14
251	0x0f	15
252	0x9d	-99
253	0xff	-1
254	0x34	52
255	0x04	4

mobilenet_v2_alpha_0.35/conv2d_3/Conv2D i1 [8, 1, 1, 48]
0	0x00	0
1	0x00	0
2	0x05	5
3	0xfd	-3
4	0x15	21
5	0xf6	-10
6	0xf1	-15
7	0x14	20
8	0x31	49
9	0x07	7
10	0x0f	15
11	0xd8	-40
12	0xb7	-73
13	0xf4	-12
14	0xfd	-3
15	0xfd	-3
16	0x00	0
17	0x0a	10
18	0xff	-1
19	0xda	-38
20	0x0d	13
21	0xf6	-10
22	0x75	117
23	0xfb	-5
24	0x22	34
25	0x00	0
26	0xde	-34
27	0x03	3
28	0xfe	-2
29	0x32	50
30	0xeb	-21
31	0x06	6
32	0x18	24
33	0xfe	-2
34	0xfa	-6
35	0x0e	14
36	0x02	2
37	0xfa	-6
38	0x0c	12
39	0x04	4
40	0x88	-120
41	0x81	-127
42	0x20	32
43	0x5d	93
44	0xe7	-25
45	0x82	-126
46	0x01	1
47	0xe9	-23
48	0x00	0
49	0xfe	-2
50	0x98	-104
51	0x13	19
52	0xfd	-3
53	0xfc	-4
54	0xf0	-16
55	0x06	6
56	0xff	-1
57	0xac	-84
58	0x03	3
59	0x01	1
60	0x00	0
61	0xdc	-36
62	0xe7	-25
63	0x2f	47
64	0x00	0
65	0xdc	-36
66	0xf5	-11
67	0xf6	-10
68	0x01	1
69	0x17	23
70	0xfb	-5
71	0xea	-22
72	0xf7	-9
73	0x00	0
74	0x01	1
75	0x8e	-114
76	0x25	37
77	0x03	3
78	0xfd	-3
79	0x81	-127
80	0x2d	45
81	0x0b	11
82	0x05	5
83	0x06	6
84	0x02	2
85	0xf3	-13
86	0x1f	31
87	0xfc	-4
88	0x06	6
89	0x06	6
90	0xff	-1
91	0xfc	-4
92	0xf3	-13
93	0xfd	-3
94	0xb1	-79
95	0x00	0
96	0x00	0
97	0xe8	-24
98	0x01	1
99	0x03	3
100	0x1c	28
101	0x11	17
102	0xe3	-29
103	0xfb	-5
104	0xde	-34
105	0x01	1
106	0x3b	59
107	0x6a	106
108	0xfe	-2
109	0x04	4
110	0x08	8
111	0x05	5
112	0x00	0
113	0x12	18
114	0xf3	-13
115	0xad	-83
116	0xd0	-48
117	0x16	22
118	0x0f	15
119	0xfb	-5
120	0x05	5
121	0x00	0
122	0xcb	-53
123	0x01	1
124	0xf0	-16
125	0x81	-127
126	0xc1	-63
127	0x01	1
128	0xae	-82
129	0xfc	-4
130	0xdc	-36
131	0x2f	47
132	0x02	2
133	0xff	-1
134	0xff	-1
135	0xee	-18
136	0x09	9
137	0xd6	-42
138	0xe9	-23
139	0x0d	13
140	0xd3	-45
141	0x11	17
142	0x01	1
143	0xe5	-27
144	0x00	0
145	0xda	-38
146	0xfb	-5
147	0xfe	-2
148	0x0a	10
149	0xd7	-41
150	0x34	52
151	0x06	6
152	0xf5	-11
153	0xfb	-5
154	0xab	-85
155	0x43	67
156	0xfa	-6
157	0xf6	-10
158	0xf4	-12
159	0xfe	-2
160	0x00	0
161	0xe7	-25
162	0x2c	44
163	0x7f	127
164	0xe8	-24
165	0xd1	-47
166	0x1f	31
167	0x0c	12
168	0x03	3
169	0x00	0
170	0xe2	-30
171	0xfa	-6
172	0x15	21
173	0xb3	-77
174	0x5c	92
175	0xf9	-7
176	0xbc	-68
177	0xd7	-41
178	0x3d	61
179	0xba	-70
180	0xfe	-2
181	0x00	0
182	0x03	3
183	0x20	32
184	0xfb	-5
185	0xd3	-45
186	0x00	0
187	0x18	24
188	0x2d	45
189	0xe9	-23
190	0xfa	-6
191	0xf6	-10
192	0x00	0
193	0x0b	11
194	0xcb	-53
195	0x9b	-101
196	0x05	5
197	0x12	18
198	0xef	-17
199	0xc3	-61
200	0x03	3
201	0xd6	-42
202	0xfd	-3
203	0x00	0
204	0xed	-19
205	0x79	121
206	0xe0	-32
207	0xc7	-57
208	0x00	0
209	0x49	73
210	0x1b	27
211	0x07	7
212	0x00	0
213	0x14	20
214	0x05	5
215	0xd4	-44
216	0xf7	-9
217	0x00	0
218	0xf8	-8
219	0xd0	-48
220	0x46	70
221	0x07	7
222	0x1f	31
223	0xc5	-59
224	0xd6	-42
225	0xfa	-6
226	0xd1	-47
227	0xf7	-9
228	0x8d	-115
229	0x7f	127
230	0xa7	-89
231	0xf1	-15
232	0xfd	-3
233	0x09	9
234	0x01	1
235	0x04	4
236	0xe0	-32
237	0x1b	27
238	0xee	-18
239	0x00	0
240	0x00	0
241	0xf7	-9
242	0x08	8
243	0xfa	-6
244	0xe2	-30
245	0xfe	-2
246	0x00	0
247	0x0f	15
248	0xd7	-41
249	0x09	9
250	0xf6	-10
251	0x29	41
252	0xcb	-53
253	0xf7	-9
254	0xf7	-9
255	0xf9	-7

mobilenet_v2_alpha_0.35/conv2d_4/Conv2D i1 [48, 1, 1, 8]
0	0x8f	-113
1	0x03	3
2	0xdf	-33
3	0xad	-83
4	0xec	-20
5	0x7f	127
6	0xfb	-5
7	0x14	20
8	0x05	5
9	0x83	-125
10	0x5f	95
11	0xc6	-58
12	0x05	5
13	0x08	8
14	0x81	-127
15	0xe8	-24
16	0x00	0
17	0x00	0
18	0x00	0
19	0x00	0
20	0x00	0
21	0x00	0
22	0x00	0
23	0x00	0
24	0x81	-127
25	0x07	7
26	0xfd	-3
27	0xed	-19
28	0xdf	-33
29	0x94	-108
30	0x15	21
31	0xe5	-27
32	0xe0	-32
33	0xe6	-26
34	0xd5	-43
35	0x51	81
36	0xcc	-52
37	0xe4	-28
38	0x81	-127
39	0xf3	-13
40	0x8a	-118
41	0x06	6
42	0x11	17
43	0xe6	-26
44	0xfa	-6
45	0x7f	127
46	0xfc	-4
47	0x0e	14
48	0xd8	-40
49	0xf0	-16
50	0x8a	-118
51	0x7f	127
52	0xd8	-40
53	0xfe	-2
54	0x04	4
55	0xf4	-12
56	0x97	-105
57	0x16	22
58	0x19	25
59	0x02	2
60	0xe7	-25
61	0x7f	127
62	0xff	-1
63	0x0e	14
64	0x15	21
65	0x58	88
66	0x29	41
67	0xd0	-48
68	0x2c	44
69	0x04	4
70	0x7f	127
71	0x16	22
72	0xf1	-15
73	0xef	-17
74	0x7f	127
75	0x51	81
76	0x16	22
77	0x0d	13
78	0x01	1
79	0xf4	-12
80	0xd4	-44
81	0x07	7
82	0x81	-127
83	0x90	-112
84	0xfc	-4
85	0x37	55
86	0xf7	-9
87	0x0b	11
88	0x1e	30
89	0xf6	-10
90	0x0a	10
91	0x12	18
92	0xed	-19
93	0x0a	10
94	0xff	-1
95	0x7f	127
96	0x86	-122
97	0x0a	10
98	0x2a	42
99	0x1e	30
100	0x11	17
101	0x7f	127
102	0x02	2
103	0x0c	12
104	0xf3	-13
105	0xef	-17
106	0x10	16
107	0x0b	11
108	0x04	4
109	0xe9	-23
110	0xfe	-2
111	0x7f	127
112	0x81	-127
113	0xc4	-60
114	0xfe	-2
115	0xea	-22
116	0x94	-108
117	0x85	-123
118	0x3b	59
119	0xe0	-32
120	0xff	-1
121	0x1f	31
122	0xda	-38
123	0x39	57
124	0x00	0
125	0x0c	12
126	0x7f	127
127	0x0f	15
128	0x02	2
129	0x7f	127
130	0x02	2
131	0x05	5
132	0x13	19
133	0x00	0
134	0xe5	-27
135	0x08	8
136	0xb7	-73
137	0xf9	-7
138	0x18	24
139	0x06	6
140	0xe9	-23
141	0xaa	-86
142	0x0a	10
143	0x7f	127
144	0x0b	11
145	0xe7	-25
146	0x22	34
147	0xb0	-80
148	0xc6	-58
149	0xfb	-5
150	0x81	-127
151	0x00	0
152	0xfe	-2
153	0x85	-123
154	0x38	56
155	0xa9	-87
156	0xc3	-61
157	0x04	4
158	0x81	-127
159	0xf6	-10
160	0x14	20
161	0xdb	-37
162	0x4e	78
163	0x81	-127
164	0x09	9
165	0xef	-17
166	0x82	-126
167	0x1d	29
168	0x0c	12
169	0x9e	-98
170	0x06	6
171	0xf4	-12
172	0x7f	127
173	0x1b	27
174	0xe8	-24
175	0xb5	-75
176	0x6b	107
177	0xd0	-48
178	0xeb	-21
179	0x1f	31
180	0x81	-127
181	0x6f	111
182	0xcd	-51
183	0x27	39
184	0x81	-127
185	0x49	73
186	0xf3	-13
187	0xf5	-11
188	0xde	-34
189	0x8f	-113
190	0x02	2
191	0xd1	-47
192	0x09	9
193	0x34	52
194	0xfd	-3
195	0xfd	-3
196	0x25	37
197	0x04	4
198	0x7f	127
199	0x0c	12
200	0xe8	-24
201	0x09	9
202	0x0a	10
203	0xef	-17
204	0xd6	-42
205	0xf5	-11
206	0x11	17
207	0x81	-127
208	0x6e	110
209	0x13	19
210	0x5c	92
211	0x7f	127
212	0xc6	-58
213	0x9e	-98
214	0x17	23
215	0xef	-17
216	0x7f	127
217	0x0a	10
218	0x08	8
219	0x0b	11
220	0xf8	-8
221	0x73	115
222	0xf8	-8
223	0x4b	75
224	0xf1	-15
225	0xf0	-16
226	0x0a	10
227	0x0f	15
228	0x04	4
229	0xe9	-23
230	0x01	1
231	0x7f	127
232	0x10	16
233	0x57	87
234	0x4b	75
235	0x9c	-100
236	0x2f	47
237	0xe9	-23
238	0x7f	127
239	0x40	64
240	0x15	21
241	0xdc	-36
242	0x23	35
243	0x81	-127
244	0xd8	-40
245	0xf4	-12
246	0x9d	-99
247	0xf1	-15
248	0xfe	-2
249	0x00	0
250	0x7f	127
251	0x5e	94
252	0x03	3
253	0x06	6
254	0x02	2
255	0xf0	-16

mobilenet_v2_alpha_0.35/batch_normalization_7/FusedBatchNormV3;mobilenet_v2_alpha_0.35/depthwise_conv2d_2/depthwise;mobilenet_v2_alpha_0.35/depthwise_conv2d_3/depthwise i1 [1, 3, 3, 48]
0	0xc6	-58
1	0xb2	-78
2	0x7f	127
3	0x01	1
4	0x09	9
5	0xf9	-7
6	0xef	-17
7	0xff	-1
8	0x02	2
9	0xe3	-29
10	0xd0	-48
11	0xf5	-11
12	0x4d	77
13	0x06	6
14	0x01	1
15	0xe4	-28
16	0xf9	-7
17	0xfe	-2
18	0x10	16
19	0xef	-17
20	0x7f	127
21	0xf9	-7
22	0x13	19
23	0x04	4
24	0x00	0
25	0xf8	-8
26	0xf7	-9
27	0x01	1
28	0x00	0
29	0x02	2
30	0xd0	-48
31	0xe3	-29
32	0xe8	-24
33	0x03	3
34	0x05	5
35	0x06	6
36	0x06	6
37	0x05	5
38	0x04	4
39	0xf7	-9
40	0xfb	-5
41	0x03	3
42	0x0c	12
43	0xd5	-43
44	0xf7	-9
45	0x8d	-115
46	0xaf	-81
47	0xea	-22
48	0x90	-112
49	0x81	-127
50	0x5c	92
51	0xbd	-67
52	0x24	36
53	0x98	-104
54	0x2e	46
55	0xea	-22
56	0xfc	-4
57	0x1e	30
58	0x7f	127
59	0xfc	-4
60	0x7f	127
61	0xf5	-11
62	0xc9	-55
63	0x4d	77
64	0x04	4
65	0x0c	12
66	0x81	-127
67	0xac	-84
68	0xef	-17
69	0xec	-20
70	0x01	1
71	0x01	1
72	0x1a	26
73	0xfd	-3
74	0xd5	-43
75	0x07	7
76	0xbf	-65
77	0xef	-17
78	0x81	-127
79	0xc8	-56
80	0x18	24
81	0xe5	-27
82	0xf8	-8
83	0xd8	-40
84	0x08	8
85	0x81	-127
86	0x5d	93
87	0xfb	-5
88	0xcf	-49
89	0xd9	-39
90	0xd4	-44
91	0xa2	-94
92	0x01	1
93	0x6e	110
94	0x0b	11
95	0x06	6
96	0xf9	-7
97	0xe1	-31
98	0x6b	107
99	0x00	0
100	0xff	-1
101	0x2e	46
102	0xed	-19
103	0x2b	43
104	0xff	-1
105	0xfe	-2
106	0xa8	-88
107	0xff	-1
108	0x19	25
109	0xf4	-12
110	0x01	1
111	0xcf	-49
112	0x01	1
113	0xf5	-11
114	0x1c	28
115	0xe3	-29
116	0xb8	-72
117	0xfa	-6
118	0x15	21
119	0x01	1
120	0xfd	-3
121	0x02	2
122	0x37	55
123	0x00	0
124	0xf9	-7
125	0x03	3
126	0xf0	-16
127	0x17	23
128	0x00	0
129	0xf8	-8
130	0x00	0
131	0x0d	13
132	0x1a	26
133	0x03	3
134	0xd5	-43
135	0x08	8
136	0x02	2
137	0x8e	-114
138	0x15	21
139	0xaf	-81
140	0x07	7
141	0x04	4
142	0x00	0
143	0xf7	-9
144	0x4e	78
145	0x2e	46
146	0x0d	13
147	0xfe	-2
148	0xef	-17
149	0x2c	44
150	0xf3	-13
151	0xff	-1
152	0xe4	-28
153	0x96	-106
154	0xb1	-79
155	0x73	115
156	0xbc	-68
157	0xab	-85
158	0xe5	-27
159	0x39	57
160	0x12	18
161	0xd3	-45
162	0x04	4
163	0x7f	127
164	0xa5	-91
165	0xec	-20
166	0x7e	126
167	0xea	-22
168	0x0f	15
169	0x7f	127
170	0x16	22
171	0x00	0
172	0xd3	-45
173	0x22	34
174	0x6b	107
175	0x46	70
176	0x87	-121
177	0xdf	-33
178	0x07	7
179	0x0f	15
180	0x22	34
181	0x0a	10
182	0xd4	-44
183	0xab	-85
184	0x09	9
185	0xf5	-11
186	0xeb	-21
187	0x1b	27
188	0x81	-127
189	0x7f	127
190	0x81	-127
191	0xd3	-45
192	0x7f	127
193	0x7d	125
194	0x30	48
195	0x7f	127
196	0x81	-127
197	0x7f	127
198	0x7f	127
199	0x81	-127
200	0x7f	127
201	0x7f	127
202	0xfb	-5
203	0x81	-127
204	0x91	-111
205	0x7f	127
206	0x7f	127
207	0x81	-127
208	0x81	-127
209	0x7f	127
210	0xa4	-92
211	0x11	17
212	0xf4	-12
213	0x7f	127
214	0xa2	-94
215	0x81	-127
216	0x7f	127
217	0xcc	-52
218	0x81	-127
219	0x81	-127
220	0x7f	127
221	0x81	-127
222	0x9b	-101
223	0x7f	127
224	0x7f	127
225	0xd4	-44
226	0x7f	127
227	0xec	-20
228	0x7f	127
229	0x77	119
230	0x87	-121
231	0x7f	127
232	0x7f	127
233	0x9f	-97
234	0xe4	-28
235	0x7f	127
236	0x72	114
237	0x99	-103
238	0x72	114
239	0xdf	-33
240	0x0e	14
241	0x1a	26
242	0x3e	62
243	0xf9	-7
244	0x06	6
245	0x84	-124
246	0xe2	-30
247	0x67	103
248	0x9f	-97
249	0xe9	-23
250	0x3f	63
251	0x0c	12
252	0xf7	-9
253	0xff	-1
254	0xe8	-24
255	0x43	67

mobilenet_v2_alpha_0.35/conv2d_5/Conv2D i1 [8, 1, 1, 48]
0	0xf2	-14
1	0xf5	-11
2	0x00	0
3	0xa4	-92
4	0xf3	-13
5	0x83	-125
6	0xfc	-4
7	0xe9	-23
8	0x15	21
9	0xf9	-7
10	0x28	40
11	0x27	39
12	0xfc	-4
13	0xff	-1
14	0x52	82
15	0xfb	-5
16	0xf9	-7
17	0xd4	-44
18	0xfc	-4
19	0x0e	14
20	0x09	9
21	0xc9	-55
22	0x18	24
23	0x5a	90
24	0xfc	-4
25	0xb1	-79
26	0xd7	-41
27	0x28	40
28	0xe5	-27
29	0x02	2
30	0xea	-22
31	0xfd	-3
32	0x01	1
33	0x1d	29
34	0xbf	-65
35	0x1a	26
36	0xe0	-32
37	0xfe	-2
38	0x7f	127
39	0xdf	-33
40	0x45	69
41	0x00	0
42	0xf8	-8
43	0xe3	-29
44	0xcc	-52
45	0x05	5
46	0xe3	-29
47	0xcc	-52
48	0x03	3
49	0x0a	10
50	0x00	0
51	0xd0	-48
52	0x08	8
53	0xf4	-12
54	0xf6	-10
55	0x3a	58
56	0xc6	-58
57	0x15	21
58	0x07	7
59	0x1c	28
60	0x0d	13
61	0xd0	-48
62	0x0c	12
63	0xca	-54
64	0x81	-127
65	0x18	24
66	0x02	2
67	0x10	16
68	0x26	38
69	0xac	-84
70	0xfc	-4
71	0xf5	-11
72	0xe9	-23
73	0x04	4
74	0x19	25
75	0xcd	-51
76	0xeb	-21
77	0xf4	-12
78	0xf7	-9
79	0xfa	-6
80	0xcb	-53
81	0x0c	12
82	0x11	17
83	0x2f	47
84	0x0a	10
85	0xf1	-15
86	0xd3	-45
87	0x1e	30
88	0xda	-38
89	0x00	0
90	0xcc	-52
91	0x0b	11
92	0xff	-1
93	0xe6	-26
94	0x04	4
95	0x00	0
96	0x02	2
97	0x02	2
98	0x00	0
99	0x0b	11
100	0x02	2
101	0x0a	10
102	0xe1	-31
103	0x0c	12
104	0x06	6
105	0x17	23
106	0x7c	124
107	0x34	52
108	0x1d	29
109	0x05	5
110	0x0c	12
111	0x0d	13
112	0xf9	-7
113	0x08	8
114	0xf3	-13
115	0x0a	10
116	0xef	-17
117	0xf8	-8
118	0x08	8
119	0xfc	-4
120	0x11	17
121	0xd2	-46
122	0xfe	-2
123	0xf9	-7
124	0x21	33
125	0x0b	11
126	0xa2	-94
127	0x7f	127
128	0x0a	10
129	0x3b	59
130	0xf6	-10
131	0x3f	63
132	0x54	84
133	0x02	2
134	0xfc	-4
135	0x10	16
136	0xf8	-8
137	0x00	0
138	0x34	52
139	0xa0	-96
140	0xc5	-59
141	0x05	5
142	0x0e	14
143	0xbd	-67
144	0xeb	-21
145	0x0c	12
146	0x00	0
147	0xe1	-31
148	0x00	0
149	0xf5	-11
150	0x29	41
151	0x17	23
152	0xef	-17
153	0x13	19
154	0x74	116
155	0xc3	-61
156	0x02	2
157	0xfc	-4
158	0x05	5
159	0xec	-20
160	0xf6	-10
161	0xff	-1
162	0x14	20
163	0xe6	-26
164	0x0e	14
165	0x08	8
166	0xff	-1
167	0x0e	14
168	0xf6	-10
169	0x4f	79
170	0x01	1
171	0xfb	-5
172	0xea	-22
173	0xf0	-16
174	0x7f	127
175	0x53	83
176	0xf6	-10
177	0xae	-82
178	0x15	21
179	0xa3	-93
180	0x46	70
181	0xfc	-4
182	0x0e	14
183	0xfb	-5
184	0x12	18
185	0x00	0
186	0xc4	-60
187	0xb7	-73
188	0x52	82
189	0xf9	-7
190	0xec	-20
191	0x5d	93
192	0xeb	-21
193	0xf3	-13
194	0x00	0
195	0xd8	-40
196	0xe0	-32
197	0xf0	-16
198	0xf5	-11
199	0x34	52
200	0xcf	-49
201	0x1f	31
202	0x01	1
203	0x1a	26
204	0xee	-18
205	0xcf	-49
206	0x51	81
207	0xcb	-53
208	0x34	52
209	0x17	23
210	0x18	24
211	0x18	24
212	0x60	96
213	0x3f	63
214	0xde	-34
215	0x0a	10
216	0xcf	-49
217	0xf8	-8
218	0x2f	47
219	0xaa	-86
220	0x22	34
221	0xde	-34
222	0xfe	-2
223	0x0d	13
224	0xc3	-61
225	0x18	24
226	0x34	52
227	0x62	98
228	0xff	-1
229	0xd2	-46
230	0xf0	-16
231	0x26	38
232	0xfe	-2
233	0x00	0
234	0x81	-127
235	0xfe	-2
236	0x0b	11
237	0xd7	-41
238	0x03	3
239	0xf8	-8
240	0x1e	30
241	0xfc	-4
242	0x00	0
243	0xad	-83
244	0xf2	-14
245	0x7f	127
246	0xf5	-11
247	0xde	-34
248	0x08	8
249	0xe4	-28
250	0xfe	-2
251	0x00	0
252	0x05	5
253	0xfe	-2
254	0x39	57
255	0xf4	-12

mobilenet_v2_alpha_0.35/conv2d_6/Conv2D i1 [48, 1, 1, 8]
0	0x3c	60
1	0xf0	-16
2	0x7f	127
3	0x66	102
4	0x07	7
5	0xc4	-60
6	0x02	2
7	0xf4	-12
8	0x07	7
9	0x81	-127
10	0x00	0
11	0xf9	-7
12	0x0f	15
13	0x0b	11
14	0x00	0
15	0xfb	-5
16	0x93	-109
17	0x13	19
18	0x9f	-97
19	0x22	34
20	0xfb	-5
21	0x7f	127
22	0x05	5
23	0xfc	-4
24	0xe8	-24
25	0xf1	-15
26	0x7f	127
27	0x5d	93
28	0x01	1
29	0x1c	28
30	0x03	3
31	0xf9	-7
32	0x78	120
33	0xe8	-24
34	0x1e	30
35	0x48	72
36	0x11	17
37	0x81	-127
38	0x0f	15
39	0xed	-19
40	0x0f	15
41	0x26	38
42	0xac	-84
43	0x7f	127
44	0x78	120
45	0x30	48
46	0xe5	-27
47	0x91	-111
48	0x01	1
49	0x1b	27
50	0xa8	-88
51	0x7f	127
52	0xb4	-76
53	0x6d	109
54	0x65	101
55	0xbe	-66
56	0xfc	-4
57	0xa3	-93
58	0x2b	43
59	0x81	-127
60	0x59	89
61	0x9f	-97
62	0x9b	-101
63	0x44	68
64	0xe3	-29
65	0xdb	-37
66	0xb9	-71
67	0x7f	127
68	0x9f	-97
69	0xf5	-11
70	0x19	25
71	0x44	68
72	0x15	21
73	0x03	3
74	0x81	-127
75	0xa1	-95
76	0x00	0
77	0xea	-22
78	0xfd	-3
79	0x05	5
80	0x00	0
81	0x34	52
82	0xf1	-15
83	0xfd	-3
84	0x38	56
85	0x10	16
86	0x7f	127
87	0x01	1
88	0xd6	-42
89	0xd0	-48
90	0x08	8
91	0xd4	-44
92	0x7f	127
93	0xab	-85
94	0xe3	-29
95	0x52	82
96	0x88	-120
97	0xfd	-3
98	0xeb	-21
99	0xd9	-39
100	0xf7	-9
101	0x7f	127
102	0xf3	-13
103	0x0d	13
104	0x75	117
105	0x24	36
106	0x0d	13
107	0x12	18
108	0x70	112
109	0x73	115
110	0xce	-50
111	0x7f	127
112	0x81	-127
113	0x02	2
114	0x16	22
115	0xf7	-9
116	0x02	2
117	0x7e	126
118	0xf9	-7
119	0x0e	14
120	0xf2	-14
121	0x93	-109
122	0x04	4
123	0xf9	-7
124	0x81	-127
125	0xe4	-28
126	0x26	38
127	0x63	99
128	0xc2	-62
129	0x6a	106
130	0xf7	-9
131	0x08	8
132	0x7f	127
133	0xb4	-76
134	0x01	1
135	0x62	98
136	0xcf	-49
137	0x9c	-100
138	0xfd	-3
139	0xe1	-31
140	0x7f	127
141	0xc8	-56
142	0xf6	-10
143	0x41	65
144	0xc7	-57
145	0xdb	-37
146	0x95	-107
147	0x7f	127
148	0x0a	10
149	0xe0	-32
150	0xef	-17
151	0x18	24
152	0x32	50
153	0x4e	78
154	0xf9	-7
155	0x22	34
156	0x81	-127
157	0x34	52
158	0xfe	-2
159	0xbe	-66
160	0x1f	31
161	0x2c	44
162	0x45	69
163	0x81	-127
164	0x5e	94
165	0x0c	12
166	0xee	-18
167	0xbe	-66
168	0xee	-18
169	0x08	8
170	0x08	8
171	0x7f	127
172	0xf7	-9
173	0x0f	15
174	0x04	4
175	0xf2	-14
176	0x81	-127
177	0xfb	-5
178	0xed	-19
179	0xcb	-53
180	0x06	6
181	0x7c	124
182	0xec	-20
183	0x10	16
184	0x0c	12
185	0x07	7
186	0x6c	108
187	0x81	-127
188	0xfc	-4
189	0xed	-19
190	0xcb	-53
191	0x14	20
192	0x7f	127
193	0xeb	-21
194	0xc9	-55
195	0x18	24
196	0x03	3
197	0x82	-126
198	0x04	4
199	0xf3	-13
200	0x98	-104
201	0xdd	-35
202	0x1a	26
203	0xf4	-12
204	0xde	-34
205	0x81	-127
206	0x1d	29
207	0xc7	-57
208	0x3d	61
209	0x03	3
210	0x3f	63
211	0x81	-127
212	0x25	37
213	0xe6	-26
214	0xef	-17
215	0x11	17
216	0xea	-22
217	0x15	21
218	0x06	6
219	0x06	6
220	0xdc	-36
221	0xdc	-36
222	0x81	-127
223	0x14	20
224	0x29	41
225	0x2d	45
226	0xbe	-66
227	0x7d	125
228	0xd4	-44
229	0x42	66
230	0x7f	127
231	0xbb	-69
232	0xb9	-71
233	0xc7	-57
234	0xa5	-91
235	0x7f	127
236	0x16	22
237	0xe9	-23
238	0xbb	-69
239	0x24	36
240	0x03	3
241	0x05	5
242	0x27	39
243	0x81	-127
244	0x22	34
245	0xf4	-12
246	0x03	3
247	0x2e	46
248	0x8d	-115
249	0x13	19
250	0xe0	-32
251	0xd7	-41
252	0xf8	-8
253	0x7f	127
254	0xff	-1
255	0x0d	13

mobilenet_v2_alpha_0.35/batch_normalization_10/FusedBatchNormV3;mobilenet_v2_alpha_0.35/depthwise_conv2d_3/depthwise i1 [1, 3, 3, 48]
0	0x5b	91
1	0x3f	63
2	0xca	-54
3	0xcf	-49
4	0x8b	-117
5	0x43	67
6	0xc0	-64
7	0xd0	-48
8	0x2d	45
9	0x3b	59
10	0xbc	-68
11	0x57	87
12	0x18	24
13	0x34	52
14	0x23	35
15	0xb1	-79
16	0xc2	-62
17	0x33	51
18	0xae	-82
19	0x17	23
20	0x1e	30
21	0xeb	-21
22	0x59	89
23	0x8d	-115
24	0x41	65
25	0xc8	-56
26	0x78	120
27	0x32	50
28	0x2f	47
29	0xd2	-46
30	0xa5	-91
31	0x1c	28
32	0xc8	-56
33	0x79	121
34	0x3d	61
35	0x38	56
36	0xd9	-39
37	0x40	64
38	0xbf	-65
39	0x39	57
40	0xdc	-36
41	0x44	68
42	0xb0	-80
43	0x58	88
44	0xc9	-55
45	0x23	35
46	0xbe	-66
47	0x39	57
48	0x7a	122
49	0x5a	90
50	0xae	-82
51	0xb4	-76
52	0x7a	122
53	0x42	66
54	0x7f	127
55	0x8a	-118
56	0x50	80
57	0x5c	92
58	0xaa	-86
59	0x6c	108
60	0x7f	127
61	0x4d	77
62	0x4d	77
63	0xa6	-90
64	0xac	-84
65	0x5f	95
66	0xf5	-11
67	0xb2	-78
68	0x4a	74
69	0xd4	-44
70	0x18	24
71	0x81	-127
72	0x53	83
73	0xac	-84
74	0x2a	42
75	0x50	80
76	0x50	80
77	0x81	-127
78	0x20	32
79	0x97	-105
80	0xad	-83
81	0x54	84
82	0x5c	92
83	0x4f	79
84	0xc5	-59
85	0x51	81
86	0x9b	-101
87	0x54	84
88	0xb4	-76
89	0x5f	95
90	0x9d	-99
91	0xe0	-32
92	0xb1	-79
93	0xb4	-76
94	0xa4	-92
95	0x4d	77
96	0x32	50
97	0x26	38
98	0xda	-38
99	0xd7	-41
100	0x77	119
101	0x0a	10
102	0x0f	15
103	0xf8	-8
104	0x29	41
105	0x34	52
106	0xd6	-42
107	0x34	52
108	0x59	89
109	0x21	33
110	0x2f	47
111	0xdd	-35
112	0xd4	-44
113	0x45	69
114	0x47	71
115	0x3d	61
116	0x32	50
117	0xda	-38
118	0xb1	-79
119	0xbd	-67
120	0x23	35
121	0xe6	-26
122	0x81	-127
123	0x21	33
124	0x36	54
125	0x9e	-98
126	0x6c	108
127	0xfa	-6
128	0xd2	-46
129	0xe5	-27
130	0x2b	43
131	0x1f	31
132	0xe2	-30
133	0x1b	27
134	0xcf	-49
135	0x20	32
136	0xd1	-47
137	0x28	40
138	0xd2	-46
139	0xd1	-47
140	0xde	-34
141	0xbf	-65
142	0xd9	-39
143	0x1b	27
144	0x5c	92
145	0x59	89
146	0xb1	-79
147	0x9f	-97
148	0x7e	126
149	0x4c	76
150	0x67	103
151	0x7f	127
152	0x50	80
153	0x61	97
154	0xa4	-92
155	0x13	19
156	0xaa	-86
157	0x58	88
158	0x48	72
159	0xb9	-71
160	0x9d	-99
161	0x47	71
162	0x81	-127
163	0x30	48
164	0x4d	77
165	0xc7	-57
166	0x13	19
167	0xfd	-3
168	0x60	96
169	0x9a	-102
170	0xf1	-15
171	0x56	86
172	0x50	80
173	0x21	33
174	0x81	-127
175	0x7f	127
176	0xa9	-87
177	0x67	103
178	0x61	97
179	0x54	84
180	0xba	-70
181	0x56	86
182	0x99	-103
183	0x56	86
184	0xb9	-71
185	0x5b	91
186	0x9c	-100
187	0x7f	127
188	0xaa	-86
189	0x5e	94
190	0xa7	-89
191	0x58	88
192	0x7f	127
193	0x7f	127
194	0x81	-127
195	0x81	-127
196	0x7f	127
197	0x7f	127
198	0x82	-126
199	0xd6	-42
200	0x7f	127
201	0x7f	127
202	0x81	-127
203	0xf3	-13
204	0x95	-107
205	0x7f	127
206	0x7f	127
207	0x81	-127
208	0x81	-127
209	0x7f	127
210	0x11	17
211	0x81	-127
212	0x7f	127
213	0x81	-127
214	0x7f	127
215	0x17	23
216	0x7f	127
217	0x81	-127
218	0x13	19
219	0x7f	127
220	0x7f	127
221	0x1d	29
222	0x0c	12
223	0x96	-106
224	0x81	-127
225	0xa7	-89
226	0x7f	127
227	0x7f	127
228	0x81	-127
229	0x7f	127
230	0x81	-127
231	0x7f	127
232	0x81	-127
233	0x7f	127
234	0x81	-127
235	0xc3	-61
236	0x81	-127
237	0x7f	127
238	0x81	-127
239	0x7f	127
240	0x45	69
241	0x37	55
242	0xb7	-73
243	0xc5	-59
244	0xc9	-55
245	0x39	57
246	0xef	-17
247	0xbe	-66
248	0x3c	60
249	0x42	66
250	0xc3	-61
251	0xdf	-33
252	0x3c	60
253	0x32	50
254	0x45	69
255	0xbf	-65

mobilenet_v2_alpha_0.35/conv2d_7/Conv2D i1 [16, 1, 1, 48]
0	0x08	8
1	0x7f	127
2	0xfe	-2
3	0xfd	-3
4	0x02	2
5	0xc3	-61
6	0x05	5
7	0xfe	-2
8	0x2d	45
9	0x06	6
10	0xfc	-4
11	0xf6	-10
12	0xfa	-6
13	0xfa	-6
14	0x05	5
15	0xd4	-44
16	0x15	21
17	0x21	33
18	0xfb	-5
19	0x09	9
20	0xd2	-46
21	0x08	8
22	0xfd	-3
23	0xf6	-10
24	0xfb	-5
25	0xed	-19
26	0x10	16
27	0xf9	-7
28	0x17	23
29	0xf1	-15
30	0x01	1
31	0xfe	-2
32	0xfe	-2
33	0xfc	-4
34	0x0c	12
35	0x3a	58
36	0xff	-1
37	0x13	19
38	0x08	8
39	0x11	17
40	0x00	0
41	0x04	4
42	0x02	2
43	0x16	22
44	0x03	3
45	0xfb	-5
46	0x1d	29
47	0xee	-18
48	0x08	8
49	0xb6	-74
50	0xe3	-29
51	0x1a	26
52	0x0f	15
53	0x07	7
54	0xe2	-30
55	0xda	-38
56	0xf8	-8
57	0x01	1
58	0xfe	-2
59	0xad	-83
60	0xe0	-32
61	0x81	-127
62	0x18	24
63	0x19	25
64	0xf2	-14
65	0x57	87
66	0x50	80
67	0x2d	45
68	0xc6	-58
69	0x30	48
70	0xeb	-21
71	0x0b	11
72	0x99	-103
73	0x2d	45
74	0x0e	14
75	0xfe	-2
76	0xe8	-24
77	0xdc	-36
78	0x5c	92
79	0x01	1
80	0x1b	27
81	0x12	18
82	0x1c	28
83	0xd5	-43
84	0xd1	-47
85	0xdb	-37
86	0xc8	-56
87	0x2a	42
88	0x20	32
89	0x1d	29
90	0xfb	-5
91	0x58	88
92	0x35	53
93	0xde	-34
94	0xc4	-60
95	0x83	-125
96	0x16	22
97	0xf3	-13
98	0x0c	12
99	0xe8	-24
100	0xff	-1
101	0xf3	-13
102	0xfe	-2
103	0xfe	-2
104	0xef	-17
105	0x81	-127
106	0xf6	-10
107	0xf7	-9
108	0x05	5
109	0xfa	-6
110	0xdc	-36
111	0x04	4
112	0xfe	-2
113	0x06	6
114	0x02	2
115	0x05	5
116	0xfc	-4
117	0x02	2
118	0x04	4
119	0xfb	-5
120	0x5a	90
121	0x01	1
122	0xfe	-2
123	0xef	-17
124	0xfc	-4
125	0xf2	-14
126	0x02	2
127	0x0b	11
128	0xe6	-26
129	0x04	4
130	0x1e	30
131	0x0a	10
132	0x22	34
133	0xe8	-24
134	0x11	17
135	0xff	-1
136	0xdd	-35
137	0xa5	-91
138	0x0a	10
139	0x06	6
140	0xa9	-87
141	0x00	0
142	0xf3	-13
143	0xf8	-8
144	0xf3	-13
145	0x2d	45
146	0x03	3
147	0x0b	11
148	0x02	2
149	0xd9	-39
150	0xff	-1
151	0xff	-1
152	0x81	-127
153	0x02	2
154	0xec	-20
155	0xfa	-6
156	0xfa	-6
157	0x15	21
158	0x04	4
159	0x0a	10
160	0xfd	-3
161	0x10	16
162	0xfd	-3
163	0x02	2
164	0x51	81
165	0x18	24
166	0xfc	-4
167	0x06	6
168	0xf0	-16
169	0x01	1
170	0xfc	-4
171	0xd3	-45
172	0xf9	-7
173	0xfb	-5
174	0x08	8
175	0xfe	-2
176	0x02	2
177	0x04	4
178	0x1e	30
179	0x39	57
180	0xf5	-11
181	0xfb	-5
182	0x15	21
183	0xec	-20
184	0x17	23
185	0x0b	11
186	0x11	17
187	0x04	4
188	0x07	7
189	0xfd	-3
190	0xe7	-25
191	0xfb	-5
192	0xe5	-27
193	0xed	-19
194	0x00	0
195	0xf8	-8
196	0x09	9
197	0xfb	-5
198	0x04	4
199	0x08	8
200	0x0b	11
201	0xf0	-16
202	0x2c	44
203	0xde	-34
204	0x00	0
205	0xc3	-61
206	0xfb	-5
207	0xfa	-6
208	0xfa	-6
209	0x1b	27
210	0x3f	63
211	0x12	18
212	0xd8	-40
213	0xc9	-55
214	0x05	5
215	0xc4	-60
216	0x51	81
217	0x13	19
218	0x17	23
219	0x39	57
220	0x15	21
221	0xf3	-13
222	0x2c	44
223	0x19	25
224	0x15	21
225	0x13	19
226	0x7f	127
227	0x15	21
228	0xf1	-15
229	0x01	1
230	0x27	39
231	0xda	-38
232	0xf3	-13
233	0xc7	-57
234	0x17	23
235	0x18	24
236	0x5c	92
237	0x03	3
238	0xd3	-45
239	0xb9	-71
240	0xf0	-16
241	0xf5	-11
242	0x2e	46
243	0xf3	-13
244	0xf3	-13
245	0xfc	-4
246	0x02	2
247	0x07	7
248	0x09	9
249	0xfa	-6
250	0x00	0
251	0x07	7
252	0x09	9
253	0xf2	-14
254	0x81	-127
255	0x01	1

mobilenet_v2_alpha_0.35/conv2d_8/Conv2D i1 [96, 1, 1, 16]
0	0xfb	-5
1	0x18	24
2	0x1c	28
3	0x1a	26
4	0x2f	47
5	0xaa	-86
6	0x17	23
7	0xd9	-39
8	0xf2	-14
9	0xdf	-33
10	0x7f	127
11	0xe9	-23
12	0x0d	13
13	0x1b	27
14	0xf1	-15
15	0x01	1
16	0xf0	-16
17	0xfd	-3
18	0x81	-127
19	0xff	-1
20	0x0b	11
21	0x0e	14
22	0x00	0
23	0x19	25
24	0x53	83
25	0xba	-70
26	0xd4	-44
27	0x11	17
28	0xcf	-49
29	0xde	-34
30	0xdc	-36
31	0xe1	-31
32	0xe7	-25
33	0x9c	-100
34	0xbd	-67
35	0xb0	-80
36	0x7f	127
37	0xe3	-29
38	0x19	25
39	0x23	35
40	0xc3	-61
41	0x3c	60
42	0xdd	-35
43	0x0c	12
44	0x11	17
45	0x09	9
46	0x00	0
47	0xe3	-29
48	0xee	-18
49	0xeb	-21
50	0xef	-17
51	0x33	51
52	0xfc	-4
53	0x08	8
54	0xe4	-28
55	0x03	3
56	0xfd	-3
57	0xf3	-13
58	0x04	4
59	0x7f	127
60	0xc6	-58
61	0x08	8
62	0x06	6
63	0x06	6
64	0xac	-84
65	0x08	8
66	0x13	19
67	0xd9	-39
68	0x1b	27
69	0x11	17
70	0xe5	-27
71	0xf4	-12
72	0x57	87
73	0x33	51
74	0x31	49
75	0x1a	26
76	0xb3	-77
77	0x27	39
78	0xf4	-12
79	0x7f	127
80	0x2b	43
81	0x16	22
82	0x05	5
83	0x7f	127
84	0x85	-123
85	0x2c	44
86	0xb5	-75
87	0xb5	-75
88	0x06	6
89	0x07	7
90	0x60	96
91	0x9f	-97
92	0xc8	-56
93	0xa1	-95
94	0x0d	13
95	0x0b	11
96	0x03	3
97	0x09	9
98	0x8b	-117
99	0x7f	127
100	0x4e	78
101	0xc5	-59
102	0xbd	-67
103	0x0e	14
104	0x0a	10
105	0xce	-50
106	0x71	113
107	0x0d	13
108	0x2a	42
109	0x20	32
110	0x3f	63
111	0xd8	-40
112	0x1d	29
113	0x1b	27
114	0xa3	-93
115	0x0a	10
116	0xcf	-49
117	0x7f	127
118	0xe8	-24
119	0x2a	42
120	0x85	-123
121	0x4b	75
122	0xf2	-14
123	0x16	22
124	0x3e	62
125	0x38	56
126	0x50	80
127	0x4b	75
128	0x29	41
129	0xea	-22
130	0x3d	61
131	0xfe	-2
132	0x51	81
133	0x7f	127
134	0x13	19
135	0x11	17
136	0xcc	-52
137	0xc2	-62
138	0x59	89
139	0xe4	-28
140	0xfa	-6
141	0xc6	-58
142	0xf3	-13
143	0x1e	30
144	0x08	8
145	0x20	32
146	0x21	33
147	0x37	55
148	0x81	-127
149	0x1d	29
150	0xed	-19
151	0xf9	-7
152	0xfe	-2
153	0xe3	-29
154	0x43	67
155	0x86	-122
156	0xd1	-47
157	0xe9	-23
158	0x8b	-117
159	0x00	0
160	0x08	8
161	0xe5	-27
162	0x4c	76
163	0x75	117
164	0xc8	-56
165	0xf1	-15
166	0xc4	-60
167	0x01	1
168	0x29	41
169	0x42	66
170	0x81	-127
171	0xdf	-33
172	0x05	5
173	0x0e	14
174	0xf3	-13
175	0xf8	-8
176	0x5e	94
177	0xfb	-5
178	0x0d	13
179	0x0b	11
180	0xd0	-48
181	0xf7	-9
182	0x6f	111
183	0xf9	-7
184	0x05	5
185	0xe0	-32
186	0xfc	-4
187	0xe7	-25
188	0xe5	-27
189	0xf3	-13
190	0x7f	127
191	0x79	121
192	0x15	21
193	0x37	55
194	0x27	39
195	0xe1	-31
196	0x81	-127
197	0xc8	-56
198	0x05	5
199	0x33	51
200	0xfb	-5
201	0xe8	-24
202	0x0e	14
203	0xfe	-2
204	0x0c	12
205	0x1a	26
206	0xe3	-29
207	0x06	6
208	0xa4	-92
209	0x54	84
210	0x04	4
211	0xf1	-15
212	0x1e	30
213	0x07	7
214	0xae	-82
215	0xf7	-9
216	0x14	20
217	0x1d	29
218	0xf0	-16
219	0xff	-1
220	0xff	-1
221	0x0b	11
222	0xef	-17
223	0x81	-127
224	0x1b	27
225	0x09	9
226	0xa2	-94
227	0xf4	-12
228	0x71	113
229	0x7f	127
230	0x06	6
231	0x58	88
232	0xd2	-46
233	0xbd	-67
234	0x34	52
235	0x11	17
236	0x0d	13
237	0x16	22
238	0x57	87
239	0x08	8
240	0x17	23
241	0xb9	-71
242	0xb3	-77
243	0xbd	-67
244	0x7f	127
245	0xe7	-25
246	0x1d	29
247	0x1f	31
248	0xf8	-8
249	0x1f	31
250	0xc1	-63
251	0x34	52
252	0x11	17
253	0x08	8
254	0x2d	45
255	0xf6	-10

mobilenet_v2_alpha_0.35/batch_normalization_13/FusedBatchNormV3;mobilenet_v2_alpha_0.35/depthwise_conv2d_4/depthwise;mobilenet_v2_alpha_0.35/depthwise_conv2d_6/depthwise i1 [1, 3, 3, 96]
0	0x3a	58
1	0x07	7
2	0x30	48
3	0xf9	-7
4	0x01	1
5	0x3b	59
6	0x00	0
7	0x1f	31
8	0xcf	-49
9	0x1c	28
10	0x81	-127
11	0x02	2
12	0xc2	-62
13	0x08	8
14	0x01	1
15	0x81	-127
16	0xf2	-14
17	0x20	32
18	0x1a	26
19	0x2a	42
20	0x0e	14
21	0xff	-1
22	0x10	16
23	0x20	32
24	0x0b	11
25	0x29	41
26	0x03	3
27	0xf8	-8
28	0xcb	-53
29	0x05	5
30	0x06	6
31	0x0a	10
32	0xfc	-4
33	0x0a	10
34	0xfe	-2
35	0x03	3
36	0xf2	-14
37	0x12	18
38	0xfc	-4
39	0xa9	-87
40	0xe2	-30
41	0xe7	-25
42	0x36	54
43	0x1d	29
44	0x0e	14
45	0xde	-34
46	0xfd	-3
47	0xce	-50
48	0x0f	15
49	0x0d	13
50	0x1e	30
51	0xfe	-2
52	0x31	49
53	0x00	0
54	0x0d	13
55	0xec	-20
56	0xf3	-13
57	0x0a	10
58	0xfc	-4
59	0x0a	10
60	0xec	-20
61	0xf6	-10
62	0xf0	-16
63	0x35	53
64	0x02	2
65	0xf3	-13
66	0xed	-19
67	0xf8	-8
68	0x08	8
69	0xff	-1
70	0xfa	-6
71	0x3c	60
72	0x03	3
73	0xde	-34
74	0x0f	15
75	0xfe	-2
76	0xf2	-14
77	0x0b	11
78	0x10	16
79	0xf7	-9
80	0x7f	127
81	0xd9	-39
82	0xf9	-7
83	0x0b	11
84	0xfa	-6
85	0xf7	-9
86	0xd8	-40
87	0xe1	-31
88	0xa2	-94
89	0x26	38
90	0xc2	-62
91	0x03	3
92	0xd1	-47
93	0x28	40
94	0xfe	-2
95	0x1b	27
96	0x7f	127
97	0x81	-127
98	0x7f	127
99	0x15	21
100	0x81	-127
101	0x27	39
102	0x11	17
103	0x0c	12
104	0xd2	-46
105	0x7f	127
106	0xfe	-2
107	0xfa	-6
108	0xbd	-67
109	0x0e	14
110	0x16	22
111	0x69	105
112	0xf7	-9
113	0xe6	-26
114	0x3f	63
115	0xd5	-43
116	0x7f	127
117	0xeb	-21
118	0xf5	-11
119	0x14	20
120	0xdd	-35
121	0x7f	127
122	0xfa	-6
123	0x15	21
124	0x81	-127
125	0x10	16
126	0xff	-1
127	0x0b	11
128	0xc8	-56
129	0xeb	-21
130	0xdf	-33
131	0x15	21
132	0xee	-18
133	0x02	2
134	0x0c	12
135	0x0f	15
136	0x2c	44
137	0x93	-109
138	0x0d	13
139	0xe9	-23
140	0x65	101
141	0xec	-20
142	0x16	22
143	0xb9	-71
144	0xe7	-25
145	0xf8	-8
146	0x3a	58
147	0x81	-127
148	0x26	38
149	0x7f	127
150	0x10	16
151	0xbb	-69
152	0xdc	-36
153	0x5f	95
154	0x06	6
155	0x11	17
156	0x81	-127
157	0x81	-127
158	0x81	-127
159	0x1b	27
160	0x53	83
161	0xc9	-55
162	0x93	-109
163	0x1e	30
164	0xf8	-8
165	0x1c	28
166	0xfd	-3
167	0x7f	127
168	0x81	-127
169	0xf6	-10
170	0x1b	27
171	0xd4	-44
172	0xaf	-81
173	0xfa	-6
174	0xc2	-62
175	0xfb	-5
176	0x58	88
177	0x24	36
178	0xed	-19
179	0xeb	-21
180	0x11	17
181	0xf8	-8
182	0x1e	30
183	0x2c	44
184	0x19	25
185	0xcb	-53
186	0x81	-127
187	0xc9	-55
188	0xcc	-52
189	0x28	40
190	0x4c	76
191	0xf9	-7
192	0x03	3
193	0x11	17
194	0x0f	15
195	0xff	-1
196	0xef	-17
197	0xf1	-15
198	0xfd	-3
199	0xf8	-8
200	0xe3	-29
201	0x17	23
202	0x86	-122
203	0xfd	-3
204	0xd7	-41
205	0xfa	-6
206	0x09	9
207	0x1e	30
208	0xf2	-14
209	0x09	9
210	0x07	7
211	0xf1	-15
212	0x02	2
213	0xf8	-8
214	0xf4	-12
215	0xf3	-13
216	0x0f	15
217	0x09	9
218	0x18	24
219	0xf7	-9
220	0x03	3
221	0xf1	-15
222	0x12	18
223	0x07	7
224	0x08	8
225	0x06	6
226	0xf9	-7
227	0x0a	10
228	0x24	36
229	0x16	22
230	0xee	-18
231	0xac	-84
232	0xff	-1
233	0x49	73
234	0xd0	-48
235	0xf9	-7
236	0xd2	-46
237	0x26	38
238	0xfc	-4
239	0xe1	-31
240	0x11	17
241	0x0f	15
242	0x2f	47
243	0x02	2
244	0x23	35
245	0xe6	-26
246	0x08	8
247	0x18	24
248	0xf9	-7
249	0xbd	-67
250	0xfb	-5
251	0xfc	-4
252	0xfb	-5
253	0x0f	15
254	0xec	-20
255	0x00	0

mobilenet_v2_alpha_0.35/conv2d_9/Conv2D i1 [16, 1, 1, 96]
0	0xea	-22
1	0x03	3
2	0xd0	-48
3	0x2e	46
4	0x02	2
5	0xe8	-24
6	0x11	17
7	0x06	6
8	0xfd	-3
9	0xce	-50
10	0xf6	-10
11	0x14	20
12	0xe0	-32
13	0x08	8
14	0xfd	-3
15	0x2d	45
16	0xbf	-65
17	0xe7	-25
18	0xfe	-2
19	0xfb	-5
20	0xf7	-9
21	0x2f	47
22	0x03	3
23	0xeb	-21
24	0xf1	-15
25	0xdd	-35
26	0xf0	-16
27	0x09	9
28	0xcf	-49
29	0xfb	-5
30	0xe2	-30
31	0xf1	-15
32	0xbb	-69
33	0xe5	-27
34	0xfe	-2
35	0x08	8
36	0xfa	-6
37	0x1e	30
38	0x10	16
39	0xcd	-51
40	0x13	19
41	0x10	16
42	0xfb	-5
43	0xf8	-8
44	0xff	-1
45	0x3d	61
46	0xea	-22
47	0xfe	-2
48	0x2e	46
49	0x13	19
50	0x03	3
51	0xe9	-23
52	0xf2	-14
53	0x7f	127
54	0x55	85
55	0xd8	-40
56	0xef	-17
57	0xed	-19
58	0xf9	-7
59	0xef	-17
60	0x09	9
61	0x20	32
62	0x00	0
63	0x00	0
64	0xea	-22
65	0x18	24
66	0xeb	-21
67	0x0b	11
68	0x2d	45
69	0xf0	-16
70	0xd7	-41
71	0xde	-34
72	0xdc	-36
73	0x14	20
74	0xd3	-45
75	0x0d	13
76	0xfd	-3
77	0xde	-34
78	0x89	-119
79	0x35	53
80	0x00	0
81	0xf7	-9
82	0xfb	-5
83	0x0e	14
84	0x05	5
85	0x08	8
86	0x1d	29
87	0xb7	-73
88	0x0b	11
89	0xe7	-25
90	0x03	3
91	0xf9	-7
92	0xef	-17
93	0xf6	-10
94	0xf8	-8
95	0x17	23
96	0xef	-17
97	0xf4	-12
98	0x00	0
99	0xfb	-5
100	0xfe	-2
101	0x25	37
102	0x2f	47
103	0xe4	-28
104	0x08	8
105	0xff	-1
106	0x04	4
107	0x25	37
108	0xf3	-13
109	0x3e	62
110	0xec	-20
111	0x06	6
112	0xff	-1
113	0xea	-22
114	0xf7	-9
115	0x67	103
116	0xcc	-52
117	0xfa	-6
118	0x7f	127
119	0x3a	58
120	0x15	21
121	0xd5	-43
122	0x40	64
123	0x13	19
124	0xe7	-25
125	0x11	17
126	0x01	1
127	0x06	6
128	0xb4	-76
129	0xb5	-75
130	0xe6	-26
131	0xeb	-21
132	0x3c	60
133	0x0f	15
134	0x11	17
135	0xc8	-56
136	0xf2	-14
137	0xed	-19
138	0x05	5
139	0x41	65
140	0x22	34
141	0x23	35
142	0x03	3
143	0x04	4
144	0x18	24
145	0xee	-18
146	0x1e	30
147	0x0e	14
148	0xce	-50
149	0xbb	-69
150	0xea	-22
151	0x1a	26
152	0x23	35
153	0x0d	13
154	0x0d	13
155	0x26	38
156	0xfe	-2
157	0xbc	-68
158	0xb4	-76
159	0xf3	-13
160	0x04	4
161	0xeb	-21
162	0xf9	-7
163	0x34	52
164	0x6f	111
165	0x41	65
166	0x03	3
167	0xd6	-42
168	0xf5	-11
169	0x03	3
170	0xfb	-5
171	0x21	33
172	0xea	-22
173	0xe9	-23
174	0x26	38
175	0x03	3
176	0x2a	42
177	0x1d	29
178	0x79	121
179	0x04	4
180	0x0a	10
181	0x45	69
182	0x04	4
183	0xe5	-27
184	0x2f	47
185	0xf2	-14
186	0xd6	-42
187	0xdf	-33
188	0x0d	13
189	0xe7	-25
190	0x25	37
191	0x64	100
192	0x1f	31
193	0x21	33
194	0x0c	12
195	0x1d	29
196	0x38	56
197	0xf1	-15
198	0xd9	-39
199	0x21	33
200	0x02	2
201	0x13	19
202	0xfd	-3
203	0xd5	-43
204	0x15	21
205	0xeb	-21
206	0x03	3
207	0x11	17
208	0xfc	-4
209	0xfb	-5
210	0x44	68
211	0x1d	29
212	0x2e	46
213	0xf8	-8
214	0x15	21
215	0x17	23
216	0xe6	-26
217	0x41	65
218	0xc6	-58
219	0x82	-126
220	0x09	9
221	0xe7	-25
222	0x23	35
223	0x37	55
224	0x16	22
225	0x2a	42
226	0x12	18
227	0x25	37
228	0x12	18
229	0x28	40
230	0x38	56
231	0xa9	-87
232	0x0c	12
233	0x0f	15
234	0x03	3
235	0xfb	-5
236	0x0e	14
237	0x20	32
238	0x08	8
239	0xb1	-79
240	0x2c	44
241	0xeb	-21
242	0xc6	-58
243	0x19	25
244	0x15	21
245	0xdd	-35
246	0x27	39
247	0xfc	-4
248	0x32	50
249	0x14	20
250	0x08	8
251	0xd4	-44
252	0x45	69
253	0xf3	-13
254	0xc5	-59
255	0x18	24

mobilenet_v2_alpha_0.35/conv2d_10/Conv2D i1 [96, 1, 1, 16]
0	0x04	4
1	0x25	37
2	0xb5	-75
3	0x93	-109
4	0x97	-105
5	0x32	50
6	0x82	-126
7	0x22	34
8	0xe7	-25
9	0xb6	-74
10	0x29	41
11	0x23	35
12	0xd0	-48
13	0x21	33
14	0x7f	127
15	0x99	-103
16	0x6d	109
17	0xdd	-35
18	0x4a	74
19	0x7f	127
20	0xe7	-25
21	0xe7	-25
22	0x54	84
23	0xfc	-4
24	0xf2	-14
25	0xd5	-43
26	0x11	17
27	0x7a	122
28	0x29	41
29	0x05	5
30	0xd9	-39
31	0x3c	60
32	0x81	-127
33	0x1b	27
34	0x43	67
35	0x4a	74
36	0x16	22
37	0xd2	-46
38	0x14	20
39	0xe2	-30
40	0x3d	61
41	0xf7	-9
42	0xd4	-44
43	0x57	87
44	0xc8	-56
45	0x00	0
46	0x58	88
47	0x57	87
48	0xfc	-4
49	0xf9	-7
50	0xfa	-6
51	0x81	-127
52	0x05	5
53	0xde	-34
54	0x13	19
55	0x08	8
56	0xb5	-75
57	0xf8	-8
58	0xd8	-40
59	0x63	99
60	0x21	33
61	0x0b	11
62	0x53	83
63	0xdb	-37
64	0xec	-20
65	0xf3	-13
66	0x0c	12
67	0xea	-22
68	0x30	48
69	0x81	-127
70	0x14	20
71	0xfa	-6
72	0x3b	59
73	0xdf	-33
74	0x3a	58
75	0xf2	-14
76	0xdf	-33
77	0x04	4
78	0xd9	-39
79	0xec	-20
80	0xea	-22
81	0x02	2
82	0x10	16
83	0x27	39
84	0x0c	12
85	0x6a	106
86	0x04	4
87	0x81	-127
88	0x12	18
89	0xdb	-37
90	0xd6	-42
91	0xdf	-33
92	0xef	-17
93	0xd1	-47
94	0xd7	-41
95	0x04	4
96	0xb1	-79
97	0xd3	-45
98	0x7a	122
99	0xd3	-45
100	0x7d	125
101	0x18	24
102	0x07	7
103	0xc2	-62
104	0x7f	127
105	0xb3	-77
106	0xa9	-87
107	0x1b	27
108	0x99	-103
109	0xab	-85
110	0xf7	-9
111	0x87	-121
112	0xbd	-67
113	0x11	17
114	0x43	67
115	0x26	38
116	0xda	-38
117	0x1b	27
118	0xfa	-6
119	0x09	9
120	0xd5	-43
121	0x57	87
122	0xef	-17
123	0x66	102
124	0xda	-38
125	0xe4	-28
126	0x81	-127
127	0xbf	-65
128	0x43	67
129	0x06	6
130	0x22	34
131	0xff	-1
132	0xdd	-35
133	0x43	67
134	0x08	8
135	0xe8	-24
136	0x7f	127
137	0x2d	45
138	0x33	51
139	0x1f	31
140	0x2b	43
141	0x4e	78
142	0xe7	-25
143	0xe7	-25
144	0xf1	-15
145	0xb6	-74
146	0x7f	127
147	0xfc	-4
148	0x53	83
149	0x45	69
150	0xfc	-4
151	0xad	-83
152	0x06	6
153	0xf5	-11
154	0x23	35
155	0xf2	-14
156	0xd1	-47
157	0xcd	-51
158	0x0a	10
159	0xe8	-24
160	0x01	1
161	0xfa	-6
162	0x00	0
163	0x1e	30
164	0x15	21
165	0x62	98
166	0xed	-19
167	0x81	-127
168	0xef	-17
169	0xe2	-30
170	0x10	16
171	0xed	-19
172	0xfe	-2
173	0xdf	-33
174	0x12	18
175	0x0a	10
176	0x0d	13
177	0x04	4
178	0x0a	10
179	0x7f	127
180	0x07	7
181	0xea	-22
182	0xc6	-58
183	0x01	1
184	0x01	1
185	0xf6	-10
186	0xfd	-3
187	0xeb	-21
188	0x0f	15
189	0x1d	29
190	0x15	21
191	0xce	-50
192	0x81	-127
193	0x21	33
194	0xd4	-44
195	0x16	22
196	0x6f	111
197	0xda	-38
198	0x05	5
199	0x0a	10
200	0x28	40
201	0x07	7
202	0x0b	11
203	0x7a	122
204	0x99	-103
205	0xd6	-42
206	0x36	54
207	0x57	87
208	0xef	-17
209	0x0e	14
210	0xf9	-7
211	0xfb	-5
212	0xee	-18
213	0x81	-127
214	0xef	-17
215	0x28	40
216	0x1a	26
217	0x17	23
218	0xfc	-4
219	0x20	32
220	0x12	18
221	0x24	36
222	0x10	16
223	0xd2	-46
224	0x81	-127
225	0xfc	-4
226	0x00	0
227	0x18	24
228	0xfd	-3
229	0xff	-1
230	0x23	35
231	0x03	3
232	0x04	4
233	0xfb	-5
234	0x05	5
235	0x12	18
236	0x1e	30
237	0x05	5
238	0x28	40
239	0x1e	30
240	0xfe	-2
241	0xd0	-48
242	0xf1	-15
243	0x6a	106
244	0x1d	29
245	0x0c	12
246	0x05	5
247	0xec	-20
248	0xc6	-58
249	0x1d	29
250	0xf6	-10
251	0x94	-108
252	0xaf	-81
253	0x65	101
254	0x81	-127
255	0x29	41

mobilenet_v2_alpha_0.35/batch_normalization_16/FusedBatchNormV3;mobilenet_v2_alpha_0.35/depthwise_conv2d_5/depthwise;mobilenet_v2_alpha_0.35/depthwise_conv2d_6/depthwise i1 [1, 3, 3, 96]
0	0x1a	26
1	0xb4	-76
2	0xf1	-15
3	0x78	120
4	0xf5	-11
5	0x34	52
6	0x2e	46
7	0x05	5
8	0x81	-127
9	0x12	18
10	0xcf	-49
11	0xff	-1
12	0x51	81
13	0x1e	30
14	0x90	-112
15	0x02	2
16	0xf5	-11
17	0x32	50
18	0x2a	42
19	0x5a	90
20	0x24	36
21	0x09	9
22	0xf8	-8
23	0xc4	-60
24	0x32	50
25	0x64	100
26	0x57	87
27	0x09	9
28	0x13	19
29	0x10	16
30	0x2e	46
31	0x2f	47
32	0xec	-20
33	0x0b	11
34	0xac	-84
35	0xca	-54
36	0x2a	42
37	0x02	2
38	0xed	-19
39	0x2c	44
40	0x1c	28
41	0x81	-127
42	0x28	40
43	0xf4	-12
44	0x7a	122
45	0xa0	-96
46	0x1c	28
47	0x18	24
48	0x15	21
49	0x88	-120
50	0xd6	-42
51	0xfb	-5
52	0x02	2
53	0xe5	-27
54	0x05	5
55	0x6f	111
56	0xd3	-45
57	0x4d	77
58	0x9a	-102
59	0xf4	-12
60	0x2b	43
61	0x3e	62
62	0x34	52
63	0xe7	-25
64	0x19	25
65	0xe6	-26
66	0x81	-127
67	0x0b	11
68	0xe7	-25
69	0x93	-109
70	0xfe	-2
71	0xd6	-42
72	0xe0	-32
73	0xf1	-15
74	0x00	0
75	0x16	22
76	0xff	-1
77	0x2d	45
78	0xea	-22
79	0xd3	-45
80	0xfb	-5
81	0xa8	-88
82	0xb3	-77
83	0xf7	-9
84	0xc7	-57
85	0x52	82
86	0x93	-109
87	0xe1	-31
88	0x2b	43
89	0xa7	-89
90	0xe1	-31
91	0x03	3
92	0x12	18
93	0x27	39
94	0xab	-85
95	0x1a	26
96	0xf8	-8
97	0x7f	127
98	0x7f	127
99	0x2d	45
100	0xf3	-13
101	0xe4	-28
102	0x0d	13
103	0x33	51
104	0x32	50
105	0x21	33
106	0x81	-127
107	0xe4	-28
108	0x6d	109
109	0x32	50
110	0x84	-124
111	0xfe	-2
112	0x06	6
113	0x40	64
114	0x81	-127
115	0x77	119
116	0x32	50
117	0x5d	93
118	0xa9	-87
119	0xd4	-44
120	0xcb	-53
121	0x1c	28
122	0x7f	127
123	0x01	1
124	0x4c	76
125	0x28	40
126	0x37	55
127	0x31	49
128	0x0a	10
129	0x81	-127
130	0x87	-121
131	0x21	33
132	0x36	54
133	0xe5	-27
134	0xfa	-6
135	0xde	-34
136	0x7f	127
137	0x96	-106
138	0x93	-109
139	0x0c	12
140	0xd0	-48
141	0x47	71
142	0xe5	-27
143	0x29	41
144	0x04	4
145	0x81	-127
146	0x81	-127
147	0xcb	-53
148	0x2b	43
149	0xbd	-67
150	0xa1	-95
151	0xab	-85
152	0x7f	127
153	0x7f	127
154	0xc8	-56
155	0xe8	-24
156	0xe6	-26
157	0xee	-18
158	0x5e	94
159	0x7f	127
160	0xe4	-28
161	0x7f	127
162	0x9c	-100
163	0xd8	-40
164	0xfa	-6
165	0x90	-112
166	0xd7	-41
167	0x21	33
168	0xa4	-92
169	0xfd	-3
170	0x05	5
171	0xef	-17
172	0xeb	-21
173	0x81	-127
174	0x8d	-115
175	0x81	-127
176	0x31	49
177	0xf6	-10
178	0x86	-122
179	0xc8	-56
180	0xf5	-11
181	0x77	119
182	0x08	8
183	0x87	-121
184	0xde	-34
185	0xe5	-27
186	0x4b	75
187	0x06	6
188	0x43	67
189	0x91	-111
190	0xa2	-94
191	0x3c	60
192	0xf1	-15
193	0xed	-19
194	0xdb	-37
195	0xeb	-21
196	0xeb	-21
197	0xe6	-26
198	0x30	48
199	0xf9	-7
200	0x4b	75
201	0x17	23
202	0xef	-17
203	0x19	25
204	0x0f	15
205	0x32	50
206	0xcd	-51
207	0xfb	-5
208	0x03	3
209	0xef	-17
210	0xff	-1
211	0xef	-17
212	0x0b	11
213	0x04	4
214	0x3c	60
215	0x2e	46
216	0xe7	-25
217	0xd9	-39
218	0x11	17
219	0xef	-17
220	0x0c	12
221	0x0a	10
222	0x0d	13
223	0x2f	47
224	0xe8	-24
225	0xe9	-23
226	0xd3	-45
227	0x13	19
228	0x4e	78
229	0xf9	-7
230	0x18	24
231	0xd3	-45
232	0x07	7
233	0x40	64
234	0x1e	30
235	0xf8	-8
236	0x86	-122
237	0xa2	-94
238	0x25	37
239	0x1a	26
240	0xe8	-24
241	0x12	18
242	0xe9	-23
243	0x06	6
244	0xf5	-11
245	0xf3	-13
246	0x18	24
247	0xf7	-9
248	0xd1	-47
249	0x14	20
250	0xa6	-90
251	0xf9	-7
252	0xce	-50
253	0xc3	-61
254	0xec	-20
255	0x1e	30
